Feature Selection/weights/weights_pears.npy (npy, 117256 bytes, 1 tensors)

array f8 [121, 121]
000000 a2 1f 8b d8 3e fb c1 bf 68 d3 4d e0 35 f7 7d bf
       -0.1404799039212295 -0.007315836385591058
000010 55 f2 34 21 85 04 53 bf 0e ac 4e 7c 50 a5 7c 3f
       -0.0011607456297745473 0.006993593594340387
000020 45 a2 aa 02 93 db 97 3f 45 48 fc c6 fb a5 4e 3f
       0.02329854682708034 0.0009353141194614686
000030 2a 9d 21 0e d6 b8 5f bf bd c2 4f 42 21 ca 1c bf
       -0.001936158216745041 -0.00010982349392897168
000040 0a cd f0 90 03 ce 60 bf 36 b9 8d ab de 86 5b bf
       -0.002051360097107162 -0.0016801046860695618
000050 71 27 7e e0 7c 8c 5d bf 98 1b 89 bf 58 12 56 bf
       -0.001803514433023481 -0.0013471476251127653
000060 bb 42 35 8d cc 96 56 bf bc 10 69 8f 77 03 4b bf
       -0.0013787267278823473 -0.000824387911798861
000070 9c 95 03 27 29 25 4c bf f3 8c e1 64 5a a6 56 bf
       -0.000858922094292214 -0.001382435107665722
000080 22 1f 7c b8 3a 61 7e bf 2d 36 1b 79 86 6d 42 bf
       -0.007416943910136616 -0.0005623728377146024
000090 35 10 3f fa 8a f1 75 bf 43 a5 8d 9e 18 dd 71 bf
       -0.005357306366878635 -0.004361244363147168
0000a0 a1 ef 93 f5 ad db 55 bf 02 ed e5 84 31 6d 55 bf
       -0.0013341139622857561 -0.0013077720246588713
0000b0 b1 31 8c 25 b6 8f 69 bf e2 5b af 0c 89 db 3d bf
       -0.003120284800735195 -0.00045559020935342757
0000c0 fa 97 67 ef 1f 38 76 bf 06 1f 0c e7 aa f2 54 bf
       -0.00542461847951436 -0.0012785595865256196
0000d0 db c2 4f 42 21 ca 1c bf 14 53 a1 b3 34 f2 52 bf
       -0.00010982349392897209 -0.001156379190907224
0000e0 2e 14 b0 2a 80 42 93 bf c4 7c 7f ba 72 5b 14 bf
       -0.01880836735292151 -7.765662905921943e-05
0000f0 44 ff 11 f2 ee 59 5d bf af c2 4f 42 21 ca 1c bf
       -0.0017914613202094235 -0.00010982349392897149
000100 bb 45 b0 2d d3 7f 59 bf 6d 2a 7f a8 65 92 5a bf
       -0.0015563547410731699 -0.0016218178516164375
000110 68 16 6f 2a ae 0b 54 bf 39 5a fa 4a ba 7c 4c bf
       -0.0012234879338718588 -0.000869360888787813
000120 75 0e 26 17 f8 cd 59 bf b9 5e ea 3f 29 74 53 bf
       -0.0015749857671786525 -0.0011873629406746035
000130 88 8b 54 db 27 b6 53 bf bb dc d0 bc a8 e3 51 bf
       -0.0012030972696457105 -0.0010918758228067166
000140 63 dc ee 62 86 4d 52 bf 2e 64 62 3d 94 e3 50 bf
       -0.0011171162002321592 -0.0010308215765120299
000150 fe 72 5d b8 de 89 4c bf 39 4c cf f5 95 f7 4d bf
       -0.000870927572332286 -0.0009145242908011948
000160 20 fb 47 3e ca 6f 4c bf 7c 0e 94 e2 5f 01 60 bf
       -0.0008678185955089714 -0.001953780437021822
000170 55 b9 c8 1c a7 1d 47 bf 01 1a 99 2d 90 3d 50 bf
       -0.0007054391840648858 -0.0009912403096606905
000180 3f 2f ff 46 eb 14 a6 3f f8 3c 96 2e ab c2 26 bf
       0.04312834970150314 -0.00017364825843600002
000190 6a b8 17 d2 ef 0b 42 3f 8a 15 ae a4 f3 2c 43 bf
       0.0005507393836390432 -0.0005851926483592545
0001a0 85 b6 39 ef 84 bf 37 3f 7b 24 0d 03 87 64 97 3f
       0.0003623675868088333 0.02284441906093491
0001b0 28 90 94 31 4e ca 2c bf af da 8b bd 81 f5 42 3f
       -0.00021965221893893824 0.0005785830972787255
0001c0 6e 78 2d 6a 9b 6d 3f 3f 25 5b 89 9c 07 20 3b 3f
       0.00047955555253576573 0.0004138964255039782
0001d0 1c 61 82 54 09 b8 7a bf 1e bf 9a 74 52 84 41 bf
       -0.006523167081603522 -0.0005345728506735736
0001e0 dd cf c3 fc 79 8d 47 bf 08 76 84 2f 0d 66 4f bf
       -0.0007187696114940818 -0.0009582104094396091
0001f0 68 15 27 d5 5b fe 55 bf 30 2e 98 57 2a 2b 53 bf
       -0.0013423821261409844 -0.001169959401866271
000200 59 d8 9b 45 50 5f 88 3f e5 ab 57 46 48 a1 21 bf
       0.01190054619244678 -0.00013450629482689085
000210 22 90 94 31 4e ca 2c bf 77 ce 6c a2 32 8b 53 bf
       -0.00021965221893893808 -0.0011928553082726481
000220 c1 1f f2 a0 28 18 30 bf 87 38 e4 51 c9 4a 5f bf
       -0.0002455805960797052 -0.0019099203123605095
000230 e5 a9 5d 43 50 cd 5e bf d7 46 06 3b 10 af 5a bf
       -0.0018800052470974102 -0.0016286524297339144
000240 fc 9b 45 91 eb ba 58 bf 93 41 ea 0e a7 82 5a bf
       -0.0015094089950140601 -0.0016180640629138473
000250 92 5c 13 6e 02 43 41 bf 35 b0 df d5 1b a9 81 bf
       -0.0005267869820738838 -0.008623330559167733
000260 ad 84 b5 61 6c db 55 bf 71 24 31 73 99 8b 81 3f
       -0.0013340528883747746 0.008567046001319608
000270 4f fe b6 88 4d 47 c1 3f 67 58 69 e3 64 74 91 bf
       0.13498849082496853 -0.017045570736023665
000280 94 c7 a8 cb cb 57 58 bf 19 bb e1 6a c8 f0 4b bf
       -0.0014857759657726831 -0.00085267816554144
000290 5d 13 3c 14 3c d0 32 3f d8 02 09 dd 23 79 91 bf
       0.00028706995748022606 -0.01706367527572436
0002a0 ff 23 3a a1 b5 f7 54 bf 5a d6 b3 0b cf 1b 92 3f
       -0.001279761669964907 0.017684207047713542
0002b0 84 bb 67 b6 80 db 81 3f 04 ae 31 4b ee 72 39 bf
       0.008719449583592505 -0.0003883201381486847
0002c0 c8 66 64 67 86 34 64 bf b4 7f 96 64 e0 5f 4f 3f
       -0.0024664521289537757 0.0009574742954789801
0002d0 cc 3f c4 e2 fa 1a 27 3f 03 fb ea 0e 8c 83 63 3f
       0.00017628014155279673 0.002382062484087456
0002e0 37 d5 46 d4 91 70 90 bf 24 4d 1a 89 15 da 85 3f
       -0.01605441911825275 0.010669868704360548
0002f0 b1 59 5c 5e 6a 07 8b 3f e2 36 40 f3 a6 51 96 3f
       0.013197737698232044 0.021795853230336067
000300 fc de 6a 78 49 4e 87 3f 13 2c 4a 77 a5 5f 99 3f
       0.011379789340352435 0.024778924375407806
000310 38 e8 14 89 7c 1b 3a bf 75 ab 66 39 0a 07 92 3f
       -0.0003983668367087997 0.017604980233652385
000320 77 0e 39 0e 23 e2 10 bf 6b 72 96 78 bf d9 1c 3f
       -6.440485918184935e-05 0.0001100562204982642
000330 cb 23 a9 0e 1e 3c 94 bf a4 1c ea 69 71 35 84 bf
       -0.01976057972413851 -0.009867559475664152
000340 1c 81 3a bc 31 e3 91 bf a1 79 f4 07 6d cb 91 bf
       -0.01746823989253797 -0.017377570734532836
000350 83 4f fa 7f f2 af a9 3f e1 c8 1f 21 53 98 a9 3f
       0.05017049610356052 0.0499902704176678
000360 3f e9 71 52 44 1e 93 3f ba 94 d9 a2 72 22 6c bf
       0.018670146495858516 -0.003434394739815075
000370 b2 c0 30 14 9a 8f 84 bf ba 16 db c6 50 e4 89 3f
       -0.010039523831523265 0.012642508572194944
000380 9f 04 41 4d 40 1a 9c bf 09 8a 61 32 80 b2 9d bf
       -0.02744389029999594 -0.029001238894474955
000390 90 41 69 d6 bb 44 b0 3f 5e 99 da 2f 44 47 ad 3f
       0.06354879364631061 0.057184344140568596
0003a0 17 fd 6b 93 37 4f 7b bf dc aa a1 fe 6d a0 90 bf
       -0.006667344182232491 -0.016236990610574917
0003b0 bc c4 d2 40 ee 79 90 bf f6 0c d5 54 94 3f a6 3f
       -0.016090128618718266 0.04345382247495337
0003c0 30 44 9c ff 9a 79 a9 3f 68 d3 4d e0 35 f7 7d bf
       0.04975590105289773 -0.007315836385591058
0003d0 1e 72 5b af 04 5f d1 bf 40 5c 32 ee 5f d6 c1 bf
       -0.27142445683219474 -0.13935469752024865
0003e0 00 2e 17 c0 ab f9 98 bf 44 65 63 80 a8 f5 64 bf
       -0.02438991889884612 -0.002558545212292403
0003f0 66 c8 ef 56 e2 2d 5a bf 82 11 1e da 8f 8f 76 bf
       -0.0015978536937351294 -0.005508005067785484
000400 be a0 50 e2 f6 53 31 bf 9a 36 93 1f 67 c1 77 bf
       -0.0002644040817494467 -0.0057996776824446265
000410 cc ea 94 78 7d 76 74 bf 35 02 92 6f cd ce 74 bf
       -0.004995813485318034 -0.005080034717253092
000420 d4 c7 f0 87 95 ea 71 bf 7c 98 3b 8d 0b 36 72 bf
       -0.0043741074614888804 -0.004446072696486888
000430 3d 60 ad 75 07 84 71 bf 9f 0e d7 18 e8 cc 71 bf
       -0.004276303424227077 -0.004345804814366665
000440 a2 ba 2d fe ee 4e 72 bf ce ee b8 f0 81 e5 92 bf
       -0.004469808164556584 -0.018453626935509608
000450 3b 5b 94 82 45 f6 6f bf ca 1e b4 4c e9 6e c7 3f
       -0.003901611101024297 0.18307224507611003
000460 5f ee 9e ef 8e 13 c3 3f 15 97 86 9e b7 e5 70 bf
       0.14903437328563293 -0.004125325453434821
000470 7c f8 6f a8 31 b4 70 bf 2b f8 b6 6f 97 35 80 bf
       -0.004078096367264302 -0.007914717766535592
000480 36 e1 8b 21 15 26 80 bf 6a e2 56 b2 8f 4e 90 bf
       -0.0078851366865683 -0.015924687633488345
000490 28 24 50 13 0c 77 71 bf 8b a0 50 e2 f6 53 31 bf
       -0.0042639228531778164 -0.00026440408174944395
0004a0 c5 48 9b cd 55 74 70 bf a5 e4 79 a8 63 51 a7 bf
       -0.004017195862348004 -0.04554282600015228
0004b0 18 db 53 48 60 81 28 bf 5e 3e 6c 52 c1 aa 71 bf
       -0.00018696117709967523 -0.004313235439226652
0004c0 c8 a0 50 e2 f6 53 31 bf da 51 a3 5d 6c 87 73 bf
       -0.00026440408174944726 -0.004767821601678846
0004d0 62 c4 89 45 78 20 74 bf 5f b7 b3 94 ce ec 6f bf
       -0.00491377812487412 -0.0038970980436862502
0004e0 e8 4b 84 92 d5 83 6a bf 9b 96 13 64 0e 10 6f bf
       -0.0032366916021913 -0.0037918358872158337
0004f0 d6 d1 1b 2b b8 b8 70 bf be 85 f9 0f d7 c6 6f bf
       -0.004082412154947387 -0.0038789940297625216
000500 d7 0f 73 77 b7 12 70 bf d0 0f b1 42 c6 4a 70 bf
       -0.0039240996040383535 -0.003977560477384359
000510 0a da b8 10 43 df 6e bf b1 e9 90 dc cd 91 6c bf
       -0.003768568980173419 -0.0034874935850243917
000520 fb a8 79 38 a8 2e 6d bf b3 0c 7b 9a ee 19 6d bf
       -0.0035622869070738284 -0.003552404424995348
000530 4d 71 1e a9 f8 44 73 bf c5 82 35 79 9d 61 6a bf
       -0.0047044480615137775 -0.0032203746465458726
000540 07 21 39 2e 63 dd 63 bf f1 fc 13 a3 94 ba 89 bf
       -0.002424901687650419 -0.012562905527828213
000550 88 e4 5f 85 f5 65 3b bf 9f b1 a4 bf bc 0f 5b bf
       -0.0004180645386209843 -0.0016517012832749434
000560 4f 76 16 df 4d e9 68 bf 24 22 70 ac 94 73 59 bf
       -0.0030409356047147794 -0.0015534355059135885
000570 fc 11 4f 0a 3d 21 9f bf 28 5b eb b9 aa be 7e 3f
       -0.030400232080653553 0.0075060528749506875
000580 a5 b1 a4 bf bc 0f 5b bf 34 20 8a 17 91 6a 5c bf
       -0.0016517012832749447 -0.001734391871794483
000590 c8 8e c5 b1 cd b3 58 bf b5 98 41 3d 69 de 90 bf
       -0.001507712243516689 -0.01647343098047634
0005a0 38 2e 11 aa 11 ff 67 bf 4c 3e e1 1d 09 0b 6b bf
       -0.0029292435652104286 -0.0033011606274511492
0005b0 4d 1a cb 67 c8 f0 6d bf c0 59 df 24 5b e6 71 bf
       -0.0036548532646947574 -0.004370075255755557
0005c0 c8 46 fa 93 c1 c1 70 bf ab 6e 39 f0 d1 bf 82 bf
       -0.004091030277452119 -0.00915493025166055
0005d0 01 de 44 3a f2 38 35 bf 1f 5b eb b9 aa be 7e 3f
       -0.00032382882843104427 0.00750605287495068
0005e0 b8 9c e0 24 89 a2 73 bf f4 5a 87 19 df 2f 81 3f
       -0.004793678015665374 0.008392088858199177
0005f0 b1 2c 21 8f 50 b5 b0 3f c3 ec a6 e9 30 74 75 bf
       0.06526664251684867 -0.005237761559722279
000600 c3 6e 9d 68 01 28 74 bf 17 9c 95 a1 8e 11 73 bf
       -0.004920964720294743 -0.004655415680963968
000610 62 a6 7e 70 0b 37 74 bf 30 52 94 ab 76 c7 54 bf
       -0.004935307202609348 -0.0012682589425071604
000620 3d 05 d1 67 c1 42 95 bf 47 eb 12 15 7f 74 7e bf
       -0.020762464486556487 -0.007435318389236673
000630 7a d9 6b 60 b3 19 5f bf 64 2c 84 79 05 06 83 bf
       -0.0018982173657469945 -0.00928882863128972
000640 99 3f c7 42 e9 02 a5 bf 66 1c 50 7a a3 4d 6d bf
       -0.04103783550419777 -0.003577060024784684
000650 14 27 78 dc cb 44 61 bf 99 15 1b 0c 40 72 55 bf
       -0.002107999960348725 -0.0013089776479529912
000660 ec cb d5 c9 ce 08 ac 3f bf f5 d1 81 7a 3d 69 bf
       0.054754697931364976 -0.0030810730664245496
000670 cf 43 1f 0a 54 c0 40 bf ca f3 b5 c6 e0 63 35 bf
       -0.0005112085675539282 -0.0003263877649358175
000680 fa 49 91 9c 77 a2 4e bf a9 63 5f 73 b1 7a 34 3f
       -0.0009348949471451034 0.00031248886386730596
000690 45 22 d9 9d 32 d2 40 bf 83 33 68 d7 6c d7 79 bf
       -0.0005133387709941947 -0.006308961068964505
0006a0 3c 9b 2d 17 0f 61 5d bf d0 50 0d 52 9e 7e ab bf
       -0.001793160187583089 -0.05370039702998641
0006b0 3b 0d 7f 43 82 5c 49 bf c9 ba cb 33 85 ec 63 bf
       -0.0007739673665060684 -0.002432117615504968
0006c0 5f db 5c f6 3a 91 5a bf 9f 0a a2 ef 21 ee 4a bf
       -0.001621539669441417 -0.0008218446448754086
0006d0 18 83 74 87 7d 76 5c bf e3 d3 95 a3 8d 3b 54 bf
       -0.0017372346754386866 -0.001234901732769738
0006e0 91 9e 0a d2 64 68 66 bf f6 da 53 48 60 81 28 bf
       -0.0027353257322209686 -0.0001869611770996743
0006f0 49 f9 a0 ba 43 82 7a bf 9e ac f6 53 57 6a 96 3f
       -0.006471886221389341 0.02189003419850321
000700 ec 9e 24 52 11 71 b8 3f eb 12 7b bc 59 a0 a5 bf
       0.09547527556844287 -0.04223900247374054
000710 b1 b6 d1 a7 40 78 a5 bf 2f 1a 84 a8 db 66 99 bf
       -0.04193307922910828 -0.024806434784318817
000720 46 2d aa f7 4b 71 99 bf 1d 46 5a 8f 0a a3 a5 3f
       -0.024846255294091145 0.042259531020260456
000730 58 73 03 09 bc 42 72 bf 41 38 06 b5 49 b5 b5 3f
       -0.004458174240622302 0.08479748410738443
000740 f4 bb 6c 17 0c 70 a8 bf b6 d5 d7 fc 5e 18 63 bf
       -0.04772985254236764 -0.0023309569576166157
000750 10 c2 bb dd 9c f0 a3 3f ef 1f c9 c6 b4 ff 96 bf
       0.03894510466296108 -0.0224598165825966
000760 d2 a1 64 80 f0 a1 c1 3f 37 26 a3 9f c7 c2 be 3f
       0.1377545000953107 0.12015960357089105
000770 31 8a 31 37 f1 38 a5 bf 5e 3e fe ee dc 3a a5 bf
       -0.04145005987881623 -0.041464714216201
000780 f9 60 15 81 53 1a 98 bf 54 4d 89 c7 4f 93 99 bf
       -0.023537926438934573 -0.024976011804324585
000790 55 f2 34 21 85 04 53 bf 40 5c 32 ee 5f d6 c1 bf
       -0.0011607456297745473 -0.13935469752024865
0007a0 67 78 38 83 fb 67 bf 3f ee fd 66 66 51 b3 c8 bf
       0.1226803965914499 -0.19297235012162112
0007b0 e7 8c 08 5b f3 cc 72 3f 6f b1 5c bb 88 7b 67 3f
       0.004589987380799721 0.00286652284093785
0007c0 66 4c 1e 7d a1 3c 84 3f 28 9a c7 c8 0b 16 3f 3f
       0.009881269102868195 0.0004743365068677085
0007d0 fa 17 7d b1 f7 4e 85 3f a9 47 dd c3 e1 5a 82 3f
       0.010404524902366308 0.008962405957990987
0007e0 bb 2e b5 eb 18 aa 82 3f 82 3c 2f ad 20 12 80 3f
       0.009113497441510679 0.007847075734302548
0007f0 2a 77 9c c7 d0 55 80 3f 68 d7 cb fc 45 6c 7f 3f
       0.00797618016400355 0.00767161692487215
